draft/models/model_dnn.tflite (tflite, 94536 bytes, 8 tensors)

arith.constant f4 [32, 64]
000000 30 04 8f bc dd 14 30 bc db 09 0b ba b6 af 7f bd
       -0.017458051 -0.010747162 -0.0005303898 -0.06242343
000010 4f c7 f6 bd 47 e2 a3 3b 86 21 01 bc a9 45 57 3c
       -0.12049734 0.0050013396 -0.007881528 0.013139167
000020 d5 67 57 bd 39 09 95 bd c3 bd 1e 3c ed a3 11 3d
       -0.052589256 -0.0727715 0.009688797 0.035556722
000030 1a a6 da bb 25 59 21 bd c4 2a 5e bc 5e 4e bb 3c
       -0.006672633 -0.039391655 -0.013560001 0.022864517
000040 86 d3 c0 3c e8 c5 c4 c0 c0 35 a6 bb f2 30 4d bd
       0.023538362 -6.1491585 -0.0050723255 -0.050095506
000050 99 91 a0 bb 55 43 65 bd 66 b0 7c bc 29 76 83 bd
       -0.004900169 -0.055972416 -0.015422916 -0.06419022
000060 cb 99 4f ba c3 47 e0 bb 20 12 69 bd f0 a2 b8 bd
       -0.000791934 -0.006844492 -0.05690205 -0.09015453
000070 39 0a 7e 3c 57 56 91 39 ee 23 35 bd bd 2a 38 3c
       0.015505367 0.00027720883 -0.04422372 0.011240658
000080 29 20 a2 bd 37 a7 fe bc 2a 94 73 b9 2e 83 1d bd
       -0.0791629 -0.031085594 -0.00023229481 -0.03845518
000090 e4 16 34 bd 1e 25 a9 3b de 80 8d bc 7c 10 55 bc
       -0.043967143 0.0051618954 -0.017273363 -0.013004418
0000a0 57 43 0e bf 5a 34 85 bd 77 e5 8b 3d 02 ed 8f c0
       -0.555715 -0.06504126 0.06830876 -4.4976816
0000b0 72 e3 89 bc 49 f6 e5 3c ac 73 b6 3d 36 3f 1d 3c
       -0.016832087 0.02807154 0.089087814 0.00959759
0000c0 30 8f 75 bd 0f 68 de bd 1a cb 99 bf 35 fa bb c0
       -0.059951007 -0.10859691 -1.2015107 -5.874293
0000d0 ae 8f 08 bd f6 6a 2c 3d 98 d4 a5 3d de 6c 4c bb
       -0.03334015 0.042094193 0.0809719 -0.003119282
0000e0 6c 02 ac bc a4 ad b6 bf d9 58 8a bd 03 3f 36 3c
       -0.020997249 -1.4271741 -0.067552276 0.011123422
0000f0 f4 df 5e bd 92 9c c3 bc 92 be 24 3b 6b 50 fb bc
       -0.054412797 -0.02387837 0.0025138003 -0.030677995
000100 95 44 4f 3d 3b 42 88 bd c4 70 ab bc dd f5 9b bc
       0.050602514 -0.066532575 -0.020927794 -0.019038135
000110 b5 64 c7 bc 59 1a b2 bc 7a 8e 21 3d 98 d8 4b bd
       -0.024340013 -0.02174108 0.039442517 -0.049767107
000120 0d 65 e9 3d e7 8d 1d bc f3 c3 d8 3c fb ff 23 bd
       0.11396227 -0.009616352 0.026460623 -0.040039044
000130 c6 9e 16 3d 83 8e 85 3d 50 1a 03 bc 97 7b a5 bd
       0.036772512 0.065213226 -0.008001879 -0.080802135
000140 ee f8 d3 bd 50 25 4a be 89 45 8c 3c 75 e8 12 bd
       -0.10350214 -0.19740796 0.017123 -0.03586622
000150 3c 8b 2e bd c2 e7 32 3e 99 d1 8a 3c 38 d2 69 3e
       -0.042613253 0.17471221 0.016945647 0.22834098
000160 72 f5 15 3b 7f 12 d7 bd cb 63 9b 3d 01 21 a4 3e
       0.0022881893 -0.10501575 0.075873934 0.3205643
000170 2f 79 d4 3d 1d f1 ff bb 45 be 29 bc e7 d2 62 bd
       0.103746764 -0.0078107254 -0.010360305 -0.055376913
000180 48 90 fe bd ff cb a1 bb 24 f4 77 bd eb e1 dc 3d
       -0.12429863 -0.0049376483 -0.060535565 0.10785278
000190 58 f9 05 3e 44 04 d5 bd de 7e f7 be 7e f2 f2 bc
       0.13083398 -0.10401204 -0.4833898 -0.029656645
0001a0 18 64 67 3d 09 b7 bd 3c e1 44 c2 bd 2d 15 88 bf
       0.05649194 0.023158567 -0.09485794 -1.0631462
0001b0 72 88 50 bd 46 c9 be 3b ab d2 66 bd 6e c6 3a bd
       -0.050911374 0.0058223335 -0.056353252 -0.045599394
0001c0 b9 d9 82 bb b0 50 9a 3d 95 88 eb be 66 13 07 bf
       -0.0039932397 0.07534921 -0.4600264 -0.52763975
0001d0 51 a7 35 bd 49 6f 6d bd 15 e3 99 bd 36 6b b8 3d
       -0.04434902 -0.057967458 -0.075140156 0.09004824
0001e0 13 e4 87 be e0 9b 31 3e 37 b5 e2 3d d4 dc 4c 3d
       -0.26541194 0.17344618 0.1106972 0.050015286
0001f0 ba 55 70 3e 41 02 5e 3c ac 56 88 bc 39 ed c0 3b
       0.23470202 0.013550342 -0.01664289 0.005887654
000200 58 93 a0 3a 84 8c 88 3d 3b 57 70 bc 38 a9 f4 bd
       0.0012250943 0.06667426 -0.014669235 -0.119463384
000210 ba 09 41 be 97 cd 1a 3d 70 96 7a bd fe 74 8b 3c
       -0.18851367 0.037793722 -0.061178625 0.01702356
000220 15 c7 0c bd 9a e2 5b bd ef 52 5e bb 56 7d c5 3c
       -0.034369547 -0.0536829 -0.0033923944 0.024107616
000230 80 28 54 bb f7 73 a5 bc 55 3e 12 3d 8c 8f cb 3b
       -0.0032372773 -0.020196898 0.035703976 0.0062121805
000240 fe ae 2a bd 88 7f 7d c0 d5 b5 9d bc 67 b5 19 bb
       -0.04167079 -3.960909 -0.019251743 -0.0023454071
000250 ad 38 a4 bd 48 57 60 bd a5 d3 3a bf af 64 84 3d
       -0.080186225 -0.054770738 -0.72979194 0.06464516
000260 91 14 6c bc 2e 09 95 3c 46 49 10 bd 0a 2b e6 bc
       -0.0144092 0.018192854 -0.03522613 -0.028096694
000270 c8 30 7c bd 68 bb e2 bd 44 f3 59 bd d4 15 3f bd
       -0.06156996 -0.11070901 -0.05321051 -0.046651676
000280 23 2b 36 be c8 40 dd bd e2 1b 5e bc 03 c2 37 bd
       -0.17789893 -0.10803372 -0.0135564525 -0.04486276
000290 f4 de 04 bd 88 3f 41 bd 69 e8 30 be 77 ba b6 bd
       -0.032439187 -0.04717973 -0.17276157 -0.08922284
0002a0 db f6 3a bf 18 0d 5b bd b7 ba dd bd 61 b0 6a c0
       -0.7303292 -0.053479284 -0.10826629 -3.6670153
0002b0 a8 0c b6 3b ab 15 c6 bd 44 56 91 bc 10 3f 9b 3c
       0.005555708 -0.096721016 -0.01774133 0.018950969
0002c0 3b fd 84 bc b8 f7 98 bd 45 d7 ad bf 28 a5 f3 c0
       -0.016234031 -0.074691236 -1.358132 -7.6139107
0002d0 16 d8 03 be 4f 26 28 bc dc ef 90 bd 1b 80 9c bc
       -0.12875399 -0.01026304 -0.070769995 -0.019104054
0002e0 5b d7 76 bd 52 a1 ac bf 6c 80 30 bc b6 41 f8 bc
       -0.060263973 -1.3486731 -0.010772806 -0.03030477
0002f0 98 68 de bd 43 d6 a5 bc 49 c5 af 3a 01 84 44 bd
       -0.108597934 -0.02024377 0.0013410236 -0.04797745
000300 b7 fd a1 bc 85 26 98 bd 0c 49 f1 ba 0b 99 6c 3d
       -0.019774301 -0.07429222 -0.001840861 0.05776314
000310 ff dc d6 3d 80 35 be 3d 1e 60 da 3c 71 fc 02 bd
       0.104913704 0.09287548 0.02665716 -0.031979028
000320 67 78 46 bd e4 c3 1e 3d 3c a9 d6 bc 40 72 09 bc
       -0.04845467 0.038761035 -0.026203744 -0.008389056
000330 9d 5f b0 3d 0e cf 8c 3b 01 d2 95 3d f7 d4 16 3e
       0.08611987 0.004297144 0.07315446 0.14729677
000340 50 a6 8c 3e a5 05 3d 40 a0 ad be 3c d2 70 1e bc
       0.27470636 2.9534695 0.02327615 -0.009670453
000350 08 ec ad 3d b9 82 c8 bc 00 88 14 3f 5c 81 cf bd
       0.08492285 -0.024476396 0.5802002 -0.10132095
000360 d9 c2 b7 bc 0b 66 ae bd 64 fe 89 3d ef af 09 3e
       -0.022431778 -0.08515557 0.06737974 0.1344602
000370 03 37 67 bd 1d a5 eb bb 06 a7 03 3d 39 c5 15 3e
       -0.056448948 -0.007191314 0.032141708 0.14626016
000380 7e bd 48 3e 8e 5a 2e bd 27 28 a7 3d 52 3a 10 bd
       0.19603536 -0.04256683 0.08161955 -0.03521187
000390 3c 11 88 bc e2 ac b2 bd 58 2c d4 3e b9 c4 c4 3d
       -0.01660978 -0.08724381 0.41440082 0.09607834
0003a0 bc a9 8d 3e e8 43 f8 bc 0b cd 1b bc 09 64 c2 3f
       0.2766856 -0.030305818 -0.009509335 1.5186778
0003b0 77 68 2a bb 8d a4 9e bd 39 43 49 3e d7 cd 07 bd
       -0.0026002207 -0.07746229 0.1965455 -0.03315529
0003c0 79 d2 64 bd 21 8a b1 3e 8d 0e a0 3e 69 95 8d 40
       -0.055864785 0.34675696 0.312611 4.4244885
0003d0 62 ac 43 3e 81 ee 97 3d f2 98 1d 3c 18 9d a1 3b
       0.19108728 0.07418538 0.009618985 0.004932057
0003e0 c0 a5 f1 3c c4 9a 57 3f e7 3e 9b bd 16 1e e9 ba
       0.029497981 0.8422053 -0.07580357 -0.0017785456
0003f0 4b 95 17 bb a1 bc 02 3c f5 ac 4c 3b d5 a5 ad 3c
       -0.0023129757 0.007979543 0.003123102 0.021197239

arith.constant1 f4 [32]
000000 72 6e 4f 3f 05 fb a2 bf 7f f1 cd 3f ca ce 99 be
       0.810279 -1.2732855 1.6089324 -0.3004058
000010 9f f5 5e be 5a 50 b2 3e 1b f2 80 c0 61 20 f9 bf
       -0.21773385 0.34826928 -4.029554 -1.9463006
000020 a7 df 97 3f ce 65 10 bf 29 ae b9 bf 81 de c0 be
       1.1865128 -0.5640534 -1.4506274 -0.37669757
000030 26 89 1c 40 3b 45 a0 bf 97 58 24 40 ba 34 fc bf
       2.4458709 -1.2521127 2.567907 -1.9703591
000040 14 1b ba be 84 ff bb bf 50 c9 3a 40 96 9d 95 be
       -0.36348784 -1.4687352 2.9185371 -0.2922179
000050 1a 9d 23 3f e9 ed 05 c0 14 7e 2a bf 93 c9 55 40
       0.6391159 -2.092646 -0.6659863 3.340428
000060 e2 22 7d bf 42 bb ab 3e 76 1c ac bf 67 11 11 40
       -0.9888135 0.33541304 -1.3446186 2.2666872
000070 49 11 b6 bf 9d 69 a6 3d da 27 ff bf 43 bd 94 bf
       -1.4224025 0.08125613 -1.9934037 -1.1620258

arith.constant2 f4 [64, 128]
000000 1d b7 2d bb d9 af ac 3f 1a 67 ce bc 69 86 34 3b
       -0.002650685 1.3491164 -0.025195647 0.0027545935
000010 43 14 50 3d e5 c7 ef 3d c2 44 4d 3f ca ca 28 3f
       0.050800573 0.11708049 0.8018304 0.6593443
000020 67 84 f0 bd 3a ad 09 3f 7d f9 dc bc 97 60 d8 3d
       -0.11744004 0.5377995 -0.026974434 0.10565298
000030 e8 05 86 3d f8 de e7 3d 7b d6 e1 b6 4f fd 45 bc
       0.06544095 0.11321825 -6.7304914e-06 -0.012084319
000040 8d 9e 2d 3f 33 21 84 3d f2 d1 0f 3f 97 00 e3 3e
       0.67820054 0.06451645 0.56179726 0.44336388
000050 13 31 5d 3e 2f 59 b1 bf b7 1d d2 be 8c 47 b2 bd
       0.21600752 -1.3855342 -0.41038296 -0.08705053
000060 51 02 da 3d 9f 34 17 40 f7 8f 47 3d 59 51 83 bf
       0.10644973 2.3625867 0.04872128 -1.02592
000070 1a 8c c0 bc eb 54 b7 bd 66 0b da 3f 69 8c b3 bc
       -0.023504306 -0.08951744 1.7034729 -0.021917539
000080 5b f5 49 bd 88 a3 09 bf 1e 59 2d 3d b8 40 ab be
       -0.049306255 -0.53765154 0.042321317 -0.33447814
000090 b3 b2 f0 bc a0 ae 46 3f 91 3e b1 40 a7 08 ea bf
       -0.029382085 0.77610207 5.5388875 -1.828389
0000a0 75 25 fe bb ca c3 ba 3d 78 03 07 bd b8 01 d2 bf
       -0.00775593 0.09119375 -0.032962292 -1.6406775
0000b0 2d 5b 61 be 24 ad 9a bd ee d0 a3 39 28 08 26 c1
       -0.22007437 -0.07552555 0.00031245447 -10.376991
0000c0 4e 85 6a be 15 1d 18 be 57 41 a8 bd 0d 1c 94 be
       -0.22902414 -0.14854844 -0.082155876 -0.2892765
0000d0 c9 b5 85 3d 3f c1 2b 3c 75 45 2d bf 97 77 90 3d
       0.065288134 0.010483085 -0.6768411 0.0705406
0000e0 93 5a 0a 3e 87 09 40 3d 99 97 35 3c d0 a7 c0 be
       0.13511114 0.046884086 0.011083507 -0.3762803
0000f0 bb 6e 4e bd e0 4d 12 3d 73 88 8e bd 8f c5 f2 bd
       -0.05039857 0.0357188 -0.069596194 -0.118540876
000100 e4 94 c0 bc f8 36 93 3e 9b bf 62 be da de ad bd
       -0.023508497 0.28752875 -0.22143404 -0.08489771
000110 71 37 94 bf 12 b9 9e bf a1 96 97 bc 78 e3 60 3f
       -1.1579419 -1.2400229 -0.018504443 0.8784709
000120 93 a3 04 bb ac bd ee bf 25 4c cb bd 37 42 10 bd
       -0.00202391 -1.8651633 -0.09926633 -0.035219397
000130 7f e1 00 3f 56 18 01 3e 83 bf 68 40 01 e3 7a 40
       0.5034408 0.1260694 3.636689 3.9201052
000140 dc a8 60 bd f0 ce 0d 3f 6a 54 b7 3c 8e b4 5c bd
       -0.054848537 0.55393887 0.022379119 -0.053883128
000150 45 74 08 bf 92 e4 a9 3d a3 33 d3 bd 34 4f d8 3c
       -0.53302413 0.082955495 -0.10312583 0.026404954
000160 ac ec da 3e d9 7d d9 3d ea 2b 54 bd 66 c5 14 3d
       0.4275869 0.10619707 -0.051799692 0.036321066
000170 8b 68 62 41 be 7a 75 c0 79 22 fc bd 40 96 06 3f
       14.150523 -3.8356166 -0.12311263 0.52573013
000180 d5 39 09 be 5d 81 8c be 91 dc eb 3c 2a 3a cb be
       -0.13400967 -0.27442446 0.028791698 -0.39692813
000190 2d 35 a2 bf 33 fe 00 3f 9b a5 98 bf ae 3b 01 3d
       -1.2672478 0.5038788 -1.1925539 0.031551056
0001a0 39 15 6e bd ef da db be 0f ca 8d 3e bd 5b 1f bd
       -0.05812571 -0.4294047 0.2769322 -0.038905848
0001b0 f6 01 87 bb 24 8a 66 be af 0f f6 3e c3 30 ac bb
       -0.004120107 -0.22513634 0.4805884 -0.0052548363
0001c0 95 8b 7d bd b3 91 6f 3d 61 de 92 3f 28 90 cd ba
       -0.061900694 0.05848856 1.1474115 -0.0015683221
0001d0 20 53 64 bf 61 10 b0 3c 73 11 1e 3e f3 42 b2 bc
       -0.8918934 0.021492185 0.15436344 -0.02176044
0001e0 77 38 51 c0 84 fd 77 be 6f f6 48 bd f3 04 81 3f
       -3.2690713 -0.24217802 -0.049063142 1.0079635
0001f0 53 68 bd 40 bc 49 13 be a1 45 0e bd 01 30 46 3e
       5.918985 -0.14383596 -0.034734372 0.1935425
000200 78 2e 1e 39 d2 4e 67 be 8b 13 f5 3c d2 ef e7 bd
       0.00015085365 -0.22588661 0.029916545 -0.11325039
000210 78 db 76 be 05 60 71 be 2d 0f 82 3e 50 4b b8 be
       -0.24107158 -0.23571785 0.25402203 -0.3599496
000220 86 cb 35 3d 36 c0 a7 3c d2 07 39 be 0d 8a 85 3d
       0.04438355 0.020477396 -0.1806939 0.06520472
000230 fb 60 38 bd 0e 1c 79 3f 7b a1 a0 bd 4b 0a e8 bd
       -0.045014363 0.97308433 -0.078433 -0.11330088
000240 a6 bb d1 be 84 87 67 be c7 67 91 3e 7d 87 ae 3e
       -0.40963477 -0.22610289 0.28399488 0.34087744
000250 61 8e 4d 3e 80 24 af 3e db 0b 0b bf 40 df c2 bc
       0.20073844 0.34207535 -0.54314965 -0.023788095
000260 5d 35 07 be e1 73 5f 3f 9a a7 50 be bb 13 2a bf
       -0.1320395 0.8728619 -0.20376435 -0.66436356
000270 dc 57 e9 bd 1e 58 05 be 6d cd 01 c0 ea 0b 8f 3d
       -0.11393711 -0.13021895 -2.0281632 0.06984694
000280 c6 95 2f be 07 35 70 be 13 85 f5 be 71 59 d4 3f
       -0.17146978 -0.23457728 -0.4795309 1.6589795
000290 ea 50 4e be 89 4e 9f be 6e 6d b9 c0 db 92 2a bf
       -0.20148054 -0.31114605 -5.794608 -0.66630334
0002a0 cf 0f 77 3b b1 9d 65 be c4 de c6 3d 82 ef 4e c0
       0.0037698632 -0.22423436 0.09710458 -3.2333684
0002b0 f3 c1 14 be 03 3a 82 3c f7 bd 0a be 05 48 5f bf
       -0.14527111 0.015896803 -0.13549028 -0.8721927
0002c0 8b 0e 03 bf 47 39 32 bd 2f a5 1d bd 77 ad 53 3d
       -0.51194066 -0.043511655 -0.03848761 0.0516791
0002d0 1c 87 89 bc 08 8e 44 bc 38 9b bb 3b 89 b7 90 bd
       -0.016788058 -0.0119967535 0.0057252906 -0.070662566
0002e0 d0 39 0a be fd ce 36 be eb c3 dd 3c 56 a0 2e bf
       -0.13498616 -0.17852397 0.02707096 -0.68213403
0002f0 ac b6 bd bd 3f fa 64 be e7 b2 66 bd e0 f4 c5 3e
       -0.092633575 -0.22361086 -0.05632296 0.38663387
000300 28 57 82 ba 53 67 74 bf 6f 7f 14 be c5 f8 9c bd
       -0.0009944187 -0.9547016 -0.14501737 -0.076646365
000310 a9 1a e3 bf da 6e 64 bf 6e 4f a3 3b ec 89 da be
       -1.7742511 -0.89231646 0.004983834 -0.4268335
000320 7e 91 43 be 6e b2 2e be 0f 24 83 bd 68 35 eb bd
       -0.1909847 -0.17060253 -0.06403362 -0.11484796
000330 63 0e ac be 29 14 ab be 97 23 12 40 41 01 26 c0
       -0.33604726 -0.33413818 2.2834222 -2.5938265
000340 23 31 b5 bc ea ad 11 3e 7d 89 8a 3d 43 77 21 be
       -0.022118157 0.14226499 0.06764505 -0.15768151
000350 98 5f 16 bf a8 9b d8 3e 50 e2 3a 3e ba 61 99 3b
       -0.58739614 0.42306256 0.18250394 0.0046808394
000360 01 d2 46 bd e1 f3 b0 bd 4e d6 f9 bd ae 22 30 3e
       -0.04854012 -0.08640266 -0.121990785 0.17200729
000370 83 8b a3 c0 95 af 11 bf 0b c2 4d 3e c4 3a 94 c0
       -5.1107802 -0.5690854 0.20093553 -4.6321735
000380 da 25 00 be fe 14 60 be 62 3d 38 3f 4f 57 d9 be
       -0.12514439 -0.21883008 0.7196866 -0.42449424
000390 d5 68 82 bf f3 14 f3 be 22 05 c3 c0 e5 b1 92 3d
       -1.0188242 -0.4747692 -6.0943766 0.07162837
0003a0 7f 67 f5 bd 2f 8f d8 be 92 ac 68 bf 25 45 52 3d
       -0.11982631 -0.4229674 -0.9088832 0.051335473
0003b0 db bc 8b bd b3 46 62 be 94 9c 9c be e3 ec 10 be
       -0.06823131 -0.22097282 -0.3058821 -0.14152865
0003c0 9e ac 95 bd 5b 1d 7f 3c 81 62 7e 3e 3e 13 c2 3c
       -0.07308315 0.015570964 0.24842264 0.023690816
0003d0 7c f9 18 bf 3f 76 af 3d 21 39 87 3e d8 eb a8 bb
       -0.5975568 0.085674755 0.26410773 -0.005155068
0003e0 0b d8 8e 3f ee a3 15 bf 74 a3 11 3d 36 85 0e c0
       1.1159681 -0.5845326 0.03555627 -2.2268806
0003f0 93 16 36 40 73 d8 ec 3b 7e 6c 31 c0 07 c4 87 bc
       2.8451278 0.007227951 -2.7722468 -0.016572965

arith.constant3 f4 [64]
000000 94 14 93 40 10 1d 96 40 97 3e 32 40 7d 97 da bf
       4.596262 4.6910477 2.7850702 -1.707748
000010 7e 26 1e 40 08 14 e6 40 26 c8 e9 be c0 8c d5 40
       2.4710994 7.189945 -0.45660514 6.6734314
000020 e3 c3 5a c0 da 97 0a c0 c7 79 1d c0 48 fd d2 40
       -3.418206 -2.1655183 -2.4605577 6.593418
000030 5e 39 e4 bf 42 08 9e 3f 09 f0 07 41 bd a1 97 40
       -1.7830007 1.234627 8.496102 4.7384934
000040 5a c6 6a 40 1b 85 8c c0 2c 73 11 40 b3 b6 a8 bf
       3.6683564 -4.391248 2.2726545 -1.3180755
000050 19 81 bb bf d5 b1 8f bf 9c 25 b4 bb 0e a6 35 40
       -1.4648772 -1.1226145 -0.0054976474 2.8382602
000060 c9 ce 85 40 d9 1a 82 40 3d b9 db bf 68 cd a6 bf
       4.1814923 4.0657773 -1.7165905 -1.3031435
000070 1e 96 b8 3f bd 8c 4f c0 06 a9 41 c0 b3 fd bd bf
       1.4420812 -3.242965 -3.0259414 -1.4843048
000080 f5 24 5c 40 c2 11 9f 3f e5 d1 df 40 18 25 57 c0
       3.4397557 1.2427294 6.994372 -3.361639
000090 52 51 33 c0 4d d4 71 40 54 0e d1 3e 88 58 da bf
       -2.8018384 3.7785828 0.40831244 -1.7058268
0000a0 e4 f8 f8 b9 23 57 b8 40 96 5d 0b c0 3b d2 21 c0
       -0.00047487684 5.760637 -2.177587 -2.5284564
0000b0 c7 97 13 40 d1 4b 38 40 20 26 82 40 1f d7 6e 40
       2.3061388 2.8796275 4.067154 3.73188
0000c0 cc 3d 9a 40 a8 6f d6 3f 62 56 75 be 6e 0f a1 c0
       4.8200436 1.6752825 -0.23958734 -5.0331335
0000d0 bf a1 c4 3f 30 22 d2 40 a6 8d 6b bf fe 21 52 40
       1.5361861 6.5666733 -0.92013013 3.2833247
0000e0 0d 04 3e 40 f4 fb f8 be c6 63 b4 40 af 0c 12 40
       2.9689972 -0.48629725 5.6371794 2.2820241
0000f0 a7 14 eb bf 0d 53 ee 3e fe e7 36 40 d8 a4 fe bf
       -1.8365678 0.46547738 2.8579097 -1.9894056

arith.constant4 f4 [3, 32]
000000 0b 79 df 3d 41 24 16 bf cd 25 bd 3e d8 ce 80 be
       0.10911759 -0.5864907 0.36942902 -0.2515781
000010 55 7d 2c 3d dd 22 15 bd 82 47 14 be 27 ef 99 bd
       0.042111713 -0.0364102 -0.14480403 -0.07516318
000020 6e d0 fa bd a5 c2 26 be 35 a5 85 bd f8 35 41 bf
       -0.12246786 -0.16285188 -0.06525651 -0.75472975
000030 32 7d ea 3d 24 54 93 be 5e 8c 73 3e 6d 75 92 bd
       0.1144966 -0.28775132 0.23784015 -0.071513034
000040 ce 37 17 be 97 9c a5 bb 76 3e 9a 3e 2a 3d ec 3e
       -0.14767382 -0.0050540674 0.3012578 0.46140414
000050 db 0d 14 bf 1e 03 fb be 60 08 c1 3e fb 35 f9 bd
       -0.5783364 -0.49025816 0.37701702 -0.12168499
000060 45 39 f9 3e 7c 92 84 be 3c 1c ca be 44 25 28 3d
       0.48676506 -0.2589301 -0.39474666 0.041051164
000070 a4 69 3b be cd a3 27 3e 6e 9c 64 3e 6a 81 71 3e
       -0.18302017 0.16371079 0.22325298 0.23584524
000080 dc d2 5e bf 1e 71 93 be b1 d4 2a c0 13 74 1b 3e
       -0.87040496 -0.2879724 -2.6692317 0.15180998
000090 05 18 85 3b 4c 2a 05 c0 87 59 03 3d 32 9f 41 bf
       0.0040617012 -2.0807066 0.0320678 -0.7563354
0000a0 f1 81 38 bf 52 d7 91 3e 7c 57 82 be 1c 07 7d bd
       -0.72073275 0.2848459 -0.2545737 -0.06177436
0000b0 52 0a bc bf 2f 16 89 3e f4 23 85 c0 14 e7 57 be
       -1.469065 0.26774737 -4.160639 -0.21084243
0000c0 a5 04 84 3e 57 0e c8 3e 73 6f 35 bf c3 16 39 bf
       0.25784793 0.3907344 -0.70873183 -0.72300357
0000d0 fc 56 12 3f 9f c2 68 3a be 5d 8c bf 4e c0 e8 3d
       0.5716398 0.00088790985 -1.0966108 0.11364804
0000e0 42 d6 c5 be f2 9b 25 be 47 f0 52 bc 51 5c 30 bf
       -0.38640028 -0.1617277 -0.012874669 -0.68890864
0000f0 08 eb 21 bf bc bb 8f bf 0d bb fe 3c 9b 09 d5 3e
       -0.63249254 -1.1229167 0.031095052 0.4160889
000100 83 fb 5b be fe 32 32 3f 32 b4 b8 be dc 79 ac 3c
       -0.21482663 0.6960906 -0.36074978 0.0210542
000110 31 0a 70 3e 3f 95 05 be ee bf 0a 3e 79 69 03 bc
       0.23441388 -0.13045214 0.13549778 -0.008020752
000120 d8 d8 52 be 16 05 a5 3d d4 39 10 3d 7b e4 c4 3e
       -0.20590532 0.08057611 0.0352114 0.38455567
000130 91 b9 26 3e 5a 8a 97 bd a5 0e 2b be c3 02 29 be
       0.16281725 -0.07399435 -0.16704805 -0.1650496
000140 e6 86 90 3d 3e b0 94 be b0 94 c1 bc 0b 2c 65 3e
       0.0705698 -0.29040712 -0.02363047 0.22380082
000150 33 06 84 be 05 4c 40 be ea 85 d8 be 68 39 9e 3e
       -0.2578598 -0.18778999 -0.42289668 0.30903172
000160 36 5e 00 3e 4c 18 b1 bc 1a 53 20 be de 94 dd be
       0.12535939 -0.021618031 -0.156567 -0.4327764
000170 c0 3a ae 3e 87 60 11 3e b2 c9 c8 bd 35 ab ce be
       0.34029198 0.14196979 -0.09804095 -0.40364996

arith.constant5 f4 [3]
000000 3d b3 63 be 7a f2 ca bd c1 ae 75 3e
       -0.22236343 -0.0990953 0.23992445

arith.constant6 f4 [128]
000000 b6 34 9f 3e e5 14 8f be 35 09 d6 3e 1e 87 5f be
       0.31094903 -0.2794563 0.418039 -0.21828887
000010 29 34 6b be ef 7d 77 be d4 02 71 be 89 e6 06 3e
       -0.22969116 -0.24169134 -0.23536235 0.1317388
000020 78 0c a0 be 12 48 28 bd c6 01 fd 3d 2c 5e bd 3d
       -0.31259513 -0.041084357 0.12353854 0.092464775
000030 83 34 ba bc de a3 4f 3e 59 e6 41 3b 10 6b 8e 3d
       -0.022730118 0.20277354 0.002958676 0.06954014
000040 61 c8 ba be 84 07 63 be 6c 6d 82 3e 7c 9a a4 bc
       -0.36481002 -0.22170836 0.25474107 -0.020093195
000050 3c b8 76 3d 32 53 d2 be 11 a8 95 be fc aa 47 3d
       0.060234293 -0.41079098 -0.29229787 0.048747048
000060 4c d6 67 be 59 e0 cf bd a0 94 36 be 51 ab 94 be
       -0.22640342 -0.10150213 -0.17830133 -0.29036954
000070 69 a3 38 3e f9 5e 43 be e5 7b a6 be 13 c1 48 3e
       0.18031086 -0.19079198 -0.325164 0.19604902
000080 bc ab 2b be 3c 0a db be 4d 25 47 be d2 42 29 3e
       -0.1676473 -0.42781246 -0.19447823 0.16529396
000090 52 41 79 be c6 9e e4 3d 77 f6 b9 be 9d 0e 57 be
       -0.24341324 0.11163096 -0.3632085 -0.21001668
0000a0 86 4d 36 be 1a 51 5e 3d b9 34 d4 3e 0c bc 0f be
       -0.1780301 0.054276563 0.41446474 -0.14036578
0000b0 36 08 25 bf ee b4 97 3d 52 bb 3f be ce 83 c6 be
       -0.64465654 0.074075565 -0.18723801 -0.38772434
0000c0 45 ed 65 be ef f3 c5 3e 2a 27 6c 3b c3 3e a7 be
       -0.22453792 0.3866267 0.0036034086 -0.3266507
0000d0 3b 87 96 be a5 45 9c bd 88 09 5f be 80 cf da bd
       -0.29400048 -0.07630471 -0.2178098 -0.10684109
0000e0 02 ac 62 be 6d ac 88 be 13 c2 b9 bd 15 1c dd be
       -0.22135928 -0.2669405 -0.0907022 -0.43185487
0000f0 54 87 a9 bd 64 09 2d be 5c a1 d1 3d f1 ac 02 3e
       -0.08277765 -0.16898113 0.10235855 0.12761284
000100 2a b2 38 bd 01 c3 1f 3c 8f d7 3c bd 3f c9 08 3f
       -0.045091785 0.009751082 -0.04610401 0.5343208
000110 54 ff c4 be 10 76 ba be b7 d5 74 bd 0d 7b 53 3d
       -0.3847605 -0.364182 -0.059774127 0.051631022
000120 40 d4 eb bd b0 9e 0b bf b5 8c c7 be b4 87 37 3d
       -0.11515093 -0.5453901 -0.38974538 0.04480715
000130 d9 71 b4 3c 2c 78 ab be cd db a0 be 71 7f fa be
       0.022026943 -0.3349012 -0.31417695 -0.48925355
000140 80 44 42 bd 52 82 b0 3d 0b 61 0b 3e 5a ad a3 bd
       -0.047428608 0.086186066 0.13611238 -0.079920486
000150 76 c8 d9 bd 24 f9 2e 3e 26 d7 56 be 29 67 0e 3e
       -0.10633938 0.17087227 -0.2098051 0.1390654
000160 41 35 bb 3d 68 98 0f 3e b2 88 47 be df 2f 26 3e
       0.09141017 0.14022982 -0.19485739 0.16229199
000170 f2 30 65 be ff 18 c1 be 6f 43 0c be 2d a9 07 bf
       -0.22381952 -0.37714383 -0.13697599 -0.52992517
000180 5a c2 1d be 89 46 5c be bb d7 18 3e d5 ea af be
       -0.1540617 -0.21511282 0.14926045 -0.3435885
000190 48 ab 9e be d4 53 e8 3d ee 89 61 be 61 9d 2c be
       -0.30990052 0.11344114 -0.22025272 -0.1685691
0001a0 cf e9 db bc f3 30 e3 bd 24 1e b9 be 7a 13 83 3e
       -0.026844887 -0.11093321 -0.36155808 0.25600797
0001b0 cc 3f 3a be b0 22 c6 3e cc 9d c6 bd 51 33 ca bd
       -0.18188399 0.3869834 -0.09698066 -0.09873069
0001c0 41 b0 d2 3e 34 6e 8a 3e ef 6d 88 be 94 26 c1 3e
       0.41150096 0.27037203 -0.26646373 0.37724745
0001d0 e3 ba 98 be ec 80 0a 3e 21 11 2f bd 36 b6 24 bd
       -0.29830083 0.13525742 -0.042740945 -0.040212832
0001e0 9c 1b 0d bf c3 4a 27 be ee d8 fe be 57 11 22 be
       -0.55120254 -0.16337113 -0.4977488 -0.15826927
0001f0 f7 d7 a7 be 24 88 49 bd 91 f8 5e be 39 26 d4 3d
       -0.32781956 -0.0492021 -0.21774508 0.10358853

sequential_1/dense_1/MatMul f4 [128, 97]
000000 9e fb 20 3d d3 75 df bd 6e 49 e1 bd d3 ce 21 bd
       0.03930246 -0.10911145 -0.11000334 -0.039503884
000010 e0 6c f9 bd dc 9d 32 3e 43 d0 2c be 60 60 08 be
       -0.121789694 0.17443031 -0.1687632 -0.13318014
000020 f0 a4 8c 3e aa 4f f8 be 6a 2f 53 3f 60 36 3b bd
       0.27469587 -0.4849828 0.82494223 -0.045706153
000030 11 17 1b 3d 22 99 eb 3c 18 38 6b bf d9 b9 4d 3d
       0.037863795 0.028759543 -0.9188247 0.050226066
000040 62 cb c5 bd fb af 24 be f3 c6 06 be 15 8a 51 3c
       -0.09657933 -0.16082756 -0.1316183 0.012789269
000050 e5 e8 92 3e 69 5d 9f be 0f b1 22 3e 8c 11 98 3e
       0.2869331 -0.31125954 0.15887855 0.29700887
000060 9f 12 d8 3d b7 60 9e 3e d9 52 47 3d 8e 40 bf 3e
       0.10550427 0.30933163 0.048662994 0.3735394
000070 0b 2b 6a 3e 43 00 c6 bd a4 20 1b bf 4a cf 91 bd
       0.22867982 -0.09668019 -0.6059668 -0.071196154
000080 d2 12 d1 3e 85 ca 59 be 14 6f 88 3d bb 5d ab be
       0.4083467 -0.21268661 0.066618115 -0.33469948
000090 3b f5 f2 3c 84 45 c2 3e cf 39 c9 3e 96 02 8c 3d
       0.02965795 0.3794366 0.39301917 0.06836431
0000a0 b3 93 02 3d 76 38 18 3d 55 d5 c3 be 28 b0 2c 3e
       0.03187914 0.03716322 -0.38248697 0.16864073
0000b0 55 25 11 3e fd f3 63 bd f0 1b 80 be 62 51 81 3e
       0.14174397 -0.055652607 -0.25021315 0.25257403
0000c0 12 79 85 3e 7a c5 e5 3d 8d 44 dd be dd 71 d4 3d
       0.26068932 0.11219306 -0.43216363 0.1037328
0000d0 e0 ac f4 3e 47 c5 c7 bd 75 b2 0b be ac 75 1f 3e
       0.47788143 -0.097544245 -0.13642295 0.15572232
0000e0 80 85 b1 be f3 76 b8 3d a8 53 c1 be 64 86 62 3e
       -0.34672165 0.09007063 -0.37759137 0.22121578
0000f0 81 6b 90 bc 48 4b 03 bd 2d e5 6c 3e e2 6a 90 be
       -0.017629387 -0.032054216 0.23134299 -0.28206545
000100 1c 37 8f 3e 4e c4 e4 be 8c 93 50 3e e7 eb 58 be
       0.27971733 -0.4468102 0.20368785 -0.2118374
000110 cd 26 3f bd d1 a4 66 3d 00 ed b3 3e 53 62 b6 3d
       -0.046667863 0.056309525 0.35141754 0.089054726
000120 cc dd 29 3e 7f 64 17 be e1 00 cf 3d 38 21 31 be
       0.16588515 -0.1478443 0.101075895 -0.17297828
000130 f1 a8 67 3e 8f 55 07 bf d4 4b 62 3d 36 47 05 3f
       0.2262304 -0.5286493 0.055248097 0.52061784
000140 2a 7a dd be 26 8e 2c be a3 a4 f5 3d 7f 48 80 3e
       -0.43257266 -0.168511 0.119942926 0.2505531
000150 67 74 8c bd d7 e1 0d 3e 1b 2a 3c 3d f7 82 3e bd
       -0.068581395 0.13855682 0.045938592 -0.046511617
000160 26 08 99 3e ad 38 80 be d6 66 b4 3e 6e ca 9e 3e
       0.2988903 -0.2504324 0.35234708 0.31013817
000170 2f 73 18 3f b8 a5 1c bf b9 4d f4 3e 15 56 c9 bd
       0.59550756 -0.61190367 0.47715548 -0.09830872
000180 20 2d 11 bc 0c e5 6e 3e ce 58 d4 bd 84 d5 d6 3d
       -0.008860856 0.23329562 -0.10368501 0.104899436
000190 92 ee d7 3d 6f a5 c8 bb fe 13 a3 bc 8b a2 ed bd
       0.105435506 -0.006123237 -0.019906994 -0.11603268
0001a0 63 0a 5a 3e 35 2f 67 bf 53 64 42 3e 2d 6a d3 be
       0.21293025 -0.9030641 0.18983583 -0.41291943
0001b0 69 e5 04 3e 68 15 6f bd 0e 2d f1 3d ac 23 cb be
       0.12978138 -0.058370024 0.117761716 -0.39675653
0001c0 f1 91 95 3d 52 bd c5 bd 32 91 a5 be 2e ce 2e 3e
       0.07303227 -0.096552506 -0.32337338 0.17070839
0001d0 31 51 6c be 4a b6 a9 bd 47 cd 2b be 86 f1 19 3e
       -0.23077847 -0.08286722 -0.16777526 0.1503354
0001e0 ca 7e df bd b8 c3 92 3e 39 6c c0 ba ba 11 c7 3e
       -0.10912855 0.28664947 -0.001468069 0.38880712
0001f0 79 20 1f 3d 79 7e 70 3e d9 d9 13 3e ce 2b 4f 3c
       0.038849328 0.23485745 0.14438571 0.012644721
000200 6b 7f e1 bd 7f 47 96 bd 08 de c3 be 8c 4c b2 be
       -0.11010631 -0.073378555 -0.38255334 -0.34824026
000210 e4 11 cd be 3f 0e 57 be 59 d7 90 3d 30 79 ef 3e
       -0.40052712 -0.21001528 0.07072324 0.46772146
000220 f8 ef cb 3d d5 1c b4 bd a8 c2 82 3d 36 ce 9f 3d
       0.0995788 -0.08794562 0.06384784 0.078030035
000230 b3 d5 e3 bd 0f cf d1 be bf 8c 12 3e 63 6b 97 be
       -0.11124744 -0.40978286 0.14311503 -0.29574117
000240 8c 7b 4e 3e 03 df e4 3d 28 86 e8 bd 0c 6c 0f 3e
       0.20164317 0.111753486 -0.11353713 0.1400606
000250 91 dd 90 bc 05 83 cc 3d d7 4d d1 3c 15 9b 21 be
       -0.017683776 0.099859275 0.025549812 -0.15781815
000260 8c 39 ab bb 19 55 07 3e b7 2c a7 bc eb bd 19 3e
       -0.005225366 0.13216056 -0.020407064 0.15013854
000270 1c d4 f7 bd 80 c3 9a bd 9c cb a0 bd 41 f0 fd 3d
       -0.121010035 -0.0755682 -0.078513354 0.123993404
000280 57 15 5f bd 74 8d ba be 06 ab d8 bc 8d bb 38 be
       -0.05446371 -0.36436045 -0.026448738 -0.18040295
000290 52 bb a5 3d 0f 12 14 be 1e 3d 90 3c b5 a2 8f be
       0.08092369 -0.14460014 0.017607268 -0.28053823
0002a0 46 ce 37 be 54 10 2c bc 5d 93 e6 3d 12 9d e0 3e
       -0.17949781 -0.01050194 0.11258576 0.43869835
0002b0 1b bd 28 be 03 71 b5 bd 41 7f ca bc 1c 88 14 be
       -0.16478388 -0.08859446 -0.024718883 -0.14505047
0002c0 fc 08 08 3f bf 35 00 be c1 2c 09 bd e6 a5 e3 bd
       0.5313871 -0.12520503 -0.033489946 -0.11115627
0002d0 a0 61 75 b9 15 d3 7b be 8b a5 50 3e 0b 97 7c bd
       -0.00023401389 -0.2459224 0.2037565 -0.061667483
0002e0 be aa b7 3d 80 b6 f7 bd a9 2d 63 be fc fb 35 be
       0.08968113 -0.12095356 -0.22185387 -0.17771906
0002f0 4e 6e 24 bf 56 2f 37 3f 18 30 98 be 79 6f 2a bd
       -0.6423081 0.71556604 -0.29724193 -0.041610215
000300 8b 9c df bd c3 de 00 be 7a 4b a2 3d 93 65 89 be
       -0.1091853 -0.12584977 0.07924552 -0.26835307
000310 3a fb e1 bd bb 66 2a 3e ac aa 2d be 1d 22 05 3e
       -0.11034246 0.16640751 -0.16959637 0.13001294
000320 79 ae 1f be 14 a4 12 3f 6e 29 6a 3e 27 d3 d1 3d
       -0.155939 0.57281613 0.22867367 0.10245352
000330 1f 41 b6 3e 5a c4 75 3d 35 f0 20 bc 96 3c f2 bd
       0.35596558 0.06000171 -0.009822895 -0.11827962
000340 9e 0b 10 3e 80 0d 15 3e 40 b8 82 3b 87 27 73 bd
       0.14066932 0.14555931 0.0039892495 -0.059363868
000350 56 cb b2 bd 92 11 05 3d 86 45 2f 3d 02 eb 98 3e
       -0.087301895 0.03248746 0.042790912 0.29866797
000360 bd 29 21 3e b3 cb 06 3e 25 2c 38 3e 2a 2c b1 3c
       0.15738578 0.13163643 0.1798559 0.021627504
000370 08 95 60 be 16 73 13 be 7c b0 e1 bd 74 d8 89 3e
       -0.21931851 -0.1439937 -0.1101999 0.26922953
000380 9b 32 85 3e aa 19 0e 3e 80 f1 48 bd dd 96 19 be
       0.2601517 0.13876978 -0.049058437 -0.14998956
000390 c3 61 ec 3e d0 3c ef 3d 12 da 41 3d 64 7b 26 3e
       0.46168336 0.11681521 0.04732711 0.16258007
0003a0 5d b8 c3 3e 28 17 85 3e 85 eb 2b be bb 73 51 be
       0.38226596 0.2599423 -0.16789062 -0.20454304
0003b0 bc 9d df 3d 71 52 c4 3e 24 ab 06 3e 06 80 6d 3e
       0.10918757 0.38344148 0.13151222 0.23193368
0003c0 81 04 ac 3c 4d bb 18 3e db 73 a9 3d c1 51 83 be
       0.020998241 0.149152 0.08274051 -0.2564831
0003d0 5e 83 5d 3e c2 2f b9 3e 99 ef ff 3d 81 b4 6d 3e
       0.21632144 0.3616925 0.124968715 0.23213388
0003e0 65 04 16 3e a2 a6 b0 bc b3 5c 29 bd dd 84 46 3e
       0.14650114 -0.021563832 -0.04134817 0.19386621
0003f0 e7 73 9b bd 23 8b 62 3e 92 5a c8 3e a5 fa ac 3e
       -0.07590466 0.22123389 0.391316 0.33784977
